…
l from a BertForSequenceClassification model).\nSome weights of DistilBertForSequenceClassification were not initialized from the model checkpoint at distilbert-base-uncased and are newly initialized: ['pre_classifier.bias', 'pre_classifier.weight', 'classifier.bias', 'classifier.weight']\nYou should probably TRAIN this model on a down-stream task to be able to use it for predictions and inference.\n\n\nLet’s first check the loaded model architecture.\n\nprint(model)\n\nDistilBertForSequenceClassification(\n  (distilbert): DistilBertModel(\n    (embeddings): Embeddings(\n      (word_embeddings): Embedding(30522, 768, padding_idx=0)\n      (position_embeddings): Embedding(512, 768)\n      (LayerNorm): LayerNorm((768,), eps=1e-12, elementwise_affine=True)\n      (dropout): Dropout(p=0.1, inplace=False)\n    )\n    (transformer): Transformer(\n      (layer): ModuleList(\n        (0): TransformerBlock(\n          (attention): MultiHeadSelfAttention(\n            (dropout): Dropout(p=0.1, inplace=False)\n            (q_lin): Linear(in_features=768, out_features=768, bias=True)\n            (k_lin): Linear(in_features=768, out_features=768, bias=True)\n            (v_lin): Linear(in_features=768, out_features=768, bias=True)\n            (out_lin): Linear(in_features=768, out_features=768, bias=True)\n          )\n          (sa_layer_norm): LayerNorm((768,), eps=1e-12, elementwise_affine=True)\n          (ffn): FFN(\n            (dropout): Dropout(p=0.1, inplace=False)\n            (lin1): Linear(in_features=768, out_features=3072, bias=True)\n            (lin2): Linear(in_features=3072, out_features=768, bias=True)\n            (activation): GELUActivation()\n          )\n          (output_layer_norm): LayerNorm((768,), eps=1e-12, elementwise_affine=True)\n        )\n        (1): TransformerBlock(\n          (attention): MultiHeadSelfAttention(\n            (dropout): Dropout(p=0.1, inplace=False)\n            (q_lin): Linear(in_features=768, out_features=768, bias=True)\n            (k_lin): Linear(in_features=768, out_features=768, bias=True)\n            (v_lin): Linear(in_features=768, out_features=768, bias=True)\n            (out_lin): Linear(in_features=768, out_features=768, bias=True)\n          )\n          (sa_layer_norm): LayerNorm((768,), eps=1e-12, elementwise_affine=True)\n          (ffn): FFN(\n            (dropout): Dropout(p=0.1, inplace=False)\n            (lin1): Linear(in_features=768, out_features=3072, bias=True)\n            (lin2): Linear(in_features=3072, out_features=768, bias=True)\n            (activation): GELUActivation()\n          )\n          (output_layer_norm): LayerNorm((768,), eps=1e-12, elementwise_affine=True)\n        )\n        (2): TransformerBlock(\n          (attention): MultiHeadSelfAttention(\n            (dropout): Dropout(p=0.1, inplace=False)\n            (q_lin): Linear(in_features=768, out_features=768, bias=True)\n            (k_lin): Linear(in_features=768, out_features=768, bias=True)\n            (v_lin): Linear(in_features=768, out_features=768, bias=True)\n            (out_lin): Linear(in_features=768, out_features=768, bias=True)\n          )\n          (sa_layer_norm): LayerNorm((768,), eps=1e-12, elementwise_affine=True)\n          (ffn): FFN(\n            (dropout): Dropout(p=0.1, inplace=False)\n            (lin1): Linear(in_features=768, out_features=3072, bias=True)\n            (lin2): Linear(in_features=3072, out_features=768, bias=True)\n            (activation): GELUActivation()\n          )\n          (output_layer_norm): LayerNorm((768,), eps=1e-12, elementwise_affine=True)\n        )\n        (3): TransformerBlock(\n          (attention): MultiHeadSelfAttention(\n            (dropout): Dropout(p=0.1, inplace=False)\n            (q_lin): Linear(in_features=768, out_features=768, bias=True)\n            (k_lin): Linear(in_features=768, out_features=768, bias=True)\n            (v_lin): Linear(in_features=768, out_features=768, bias=True)\n            (out_lin): Linear(in_features=768, out_features=768, bias=True)\n          )\n          (sa_layer_norm): LayerNorm((768,), eps=1e-12, elementwise_affine=True)\n          (ffn): FFN(\n            (dropout): Dropout(p=0.1, inplace=False)\n            (lin1): Linear(in_features=768, out_features=3072, bias=True)\n            (lin2): Linear(in_features=3072, out_features=768, bias=True)\n            (activation): GELUActivation()\n          )\n          (output_layer_norm): LayerNorm((768,), eps=1e-12, elementwise_affine=True)\n        )\n        (4): TransformerBlock(\n          (attention): MultiHeadSelfAttention(\n            (dropout): Dropout(p=0.1, inplace=False)\n            (q_lin): Linear(in_features=768, out_features=768, bias=True)\n            (k_lin): Linear(in_features=768, out_features=768, bias=True)\n            (v_lin): Linear(in_features=768, out_features=768, bias=True)\n            (out_lin): Linear(in_features=768, out_features=768, bias=True)\n          )\n          (sa_layer_norm): LayerNorm((768,), eps=1e-12, elementwise_affine=True)\n          (ffn): FFN(\n            (dropout): Dropout(p=0.1, inplace=False)\n            (lin1): Linear(in_features=768, out_features=3072, bias=True)\n            (lin2): Linear(in_features=3072, out_features=768, bias=True)\n            (activation): GELUActivation()\n          )\n          (output_layer_norm): LayerNorm((768,), eps=1e-12, elementwise_affine=True)\n        )\n        (5): TransformerBlock(\n          (attention): MultiHeadSelfAttention(\n            (dropout): Dropout(p=0.1, inplace=False)\n            (q_lin): Linear(in_features=768, out_features=768, bias=True)\n            (k_lin): Linear(in_features=768, out_features=768, bias=True)\n            (v_lin): Linear(in_features=768, out_features=768, bias=True)\n            (out_lin): Linear(in_features=768, out_features=768, bias=True)\n          )\n          (sa_layer_norm): LayerNorm((768,), eps=1e-12, elementwise_affine=True)\n          (ffn): FFN(\n            (dropout): Dropout(p=0.1, inplace=False)\n            (lin1): Linear(in_features=768, out_features=3072, bias=True)\n            (lin2): Linear(in_features=3072, out_features=768, bias=True)\n            (activation): GELUActivation()\n          )\n          (output_layer_norm): LayerNorm((768,), eps=1e-12, elementwise_affine=True)\n        )\n      )\n    )\n  )\n  (pre_classifier): Linear(in_features=768, out_features=768, bias=True)\n  (classifier): Linear(in_features=768, out_features=2, bias=True)\n  (dropout): Dropout(p=0.2, inplace=False)\n)\n\n\nThat’s it!\nThat’s the simplicity of huggingface’s APIs.\nThe model is ready to use for classification.\n\n\n2.3 Custom architectures\nThere are plenty of pre-defined model architectures \\(\\rightarrow\\) auto classes\nIn more complex scenarios, we may want to define a custom architecture where the pre-trained model is part of it.\nIn these cases, the way you do it strongly depends on the underlying neural library.\nHowever, there exist several high-level APIs depending on your needs."
…
